trained_model/Reentrancy.pth (torch, 444058 bytes, 23 tensors)

conv1.lin_l.weight f4 [128, 128]
00000000: 3e93 1e3c 7799 9abc a14d d5bc b303 bd3d
00000010: 237e a1bd c7f8 9fbd fa9a 9e3c 5aeb 9f3d
00000020: 6858 02bd d98b 8ebd aa23 843c b8e9 78bd
00000030: e2e9 043d d85d 4dbc 3121 fd3c ee39 d63c
00000040: 4db2 f5bc d32a fcbc d323 9dbd 8173 643d
00000050: 36ed 91bd 1538 3d3b dfdd e1bc a490 453d
00000060: 23a2 663d 0082 95bd 6d4e 46bb caef a43c
00000070: 4cb8 2cbb 4462 a8bd a828 09bd 3213 7cbd
00000080: fcb0 9a3c 9c11 26bd a069 943d fd6d 703d
00000090: 273d 22bd ce4c 97bd 53ef 58bc 4882 b7bd
000000a0: 8fd7 8a3d c919 debc f0a6 30bd 775d 803d
000000b0: 283f e5bc 5141 a03d 6bbb 693d c44c b8ba
000000c0: 9d78 123d 9259 a1bc 5791 31bd a901 f63c
000000d0: 291e 123d e2c2 34bd bcde 72bd c555 03bd
000000e0: 2d57 ad3d fbe3 a23d 7684 643d 6f43 173d
000000f0: 2fb2 91bd aaec 9c3c 767f e53b 739b a53d
00000100: 3791 8d3c 5238 ff3c 4276 7e3d 269d 05bd
00000110: 6c77 0a3d 3deb 36bc 6fa6 8e3b 08ae f4bc
00000120: b139 86bd 7291 4ebd b48e c339 4e81 193d
00000130: 5ac2 213c 5b94 01bd 388b 083c ec06 69bd
00000140: 663d 53bd 19d0 7fbb e4cd bdbc 314b 873c
00000150: 9324 4fbd 189a 94bd 0cd2 08bd 633f 5cbd
00000160: af9a a83d 4e6c 2dbc ec95 09bc 2797 b1bd
00000170: 58ab f63c 89cc 773c b8ae ae3b 2c91 75bd
00000180: 9b9a 403b 766f c4bc 9245 7abd 4a59 ae3c
00000190: e763 87ba 6103 9c3d 5269 46bd f876 a9bd
000001a0: ea19 8c3d e206 7e3d cef6 9dbd f281 8f3d
000001b0: cdc4 503d 9198 9bbc e9c4 7b3d b76b a8bd
000001c0: 8e63 363d 99af 4c3d fde0 ba3d 01a0 89bd
000001d0: fd1d 723d c72d 99bd d621 b03d 8d80 b9bb
000001e0: f189 45bb 862d f3bb 33af 9dbd 7dad 27bd
000001f0: 8740 5dbc d6fa d2bc eb98 ddbb 905d 9e3b
00000200: bd36 aebc 98f6 383c 1df5 703d 8e15 273d
00000210: be9a 17bd 5472 673c b384 9fbd cf8f 033c
00000220: 98b2 373c 6a96 c2bc 20c5 173d f152 963b
00000230: bdaa 74bd 4524 a4bd 7bb2 fabc a84d 5f3d
00000240: 314f 88bc 3f7e a7bd 04e9 47bd 40b5 5c3c
00000250: 5546 a4bd 152e 80bd 4a0c 0dbc c919 65bb
00000260: 124a adbd 2731 483d ecca 3fbd 8715 babc
00000270: f6b7 83bd 14ae 14bd ff22 28bd da2b f7bb
00000280: a4fb a3bc 8ac6 78bd c178 0abc 0d7b 00bd
00000290: 01c0 783d 44b0 0a3d 7d9e 9b3d cfc2 b33d
000002a0: 4183 38bd e080 ebbc f47b 80bd 30ca fc3c
000002b0: 47f4 5cbd 7351 93bd e37c 1e3d a856 1e3d
000002c0: df5f 55bd aa99 c3bd 7ba1 923d efa7 2c3d
000002d0: 2222 3ebd bee8 143d 31fa a03c 9e2a 36bc
000002e0: f2a7 213d f85e d73c 68fc b23c 1c43 943d
000002f0: e5f3 aabd af9e 963c 4256 7bbd 7a20 703d
00000300: 2de1 4e3d 8967 ddbc 9499 253d f974 e8bc
00000310: 6a26 903c 614f 18bd 35a2 993d 2921 903c
00000320: b82a 94bd bea2 95bd d6ab 5bbd e72a 0c3d
00000330: 574f 613d ab01 243c 40ae a3bd 644f 98bd
00000340: cbf8 963b a1cd 98bd cdb9 893c 820d 4c3d
00000350: b615 3a3d e57b a53d bcfb 383d 2597 89bd
00000360: 1e18 a0bd 6da2 9fbd 8205 b2bd df70 aebc
00000370: a8d2 be3d 3450 c0bd 7818 39bd a81f e8bc
00000380: 3270 9fbd 71aa 67bd 6b88 f23c ed13 df3c
00000390: 888d 9a3d e94f b13b 764a 893d 6604 293c
000003a0: 1cf6 71bd b693 853c 4b14 cabc afbd 033d
000003b0: a20e 53bd 21a8 70bc e2dd ffbc 7f1d 07bd
000003c0: 73c4 94bd 330d 883d a807 8dbd 7ce8 57bd
000003d0: 3d69 4bbd 3131 fd3c 2ed5 63bd 0443 593c
000003e0: 16a9 493d 3aad 123d 7bb8 9f3d 9e88 fb3c
000003f0: 6ee8 9bbb 1af6 b5bd aa18 c6bd d2bd c83c
0.00967866 -0.018872006 -0.026037993 0.09229221 -0.07885387 -0.078111224 0.019361008 0.078085616
-0.031822592 -0.069602676 0.016130287 -0.060769767 0.03244961 -0.012534581 0.030899616 0.02615067
-0.029992247 -0.030782139 -0.076728486 0.055774216 -0.071253225 0.0028872539 -0.027571617 0.048233643
0.05630697 -0.07300186 -0.0030259148 0.020133872 -0.0026354967 -0.08221868 -0.03348604 -0.061541744
0.01888322 -0.040544137 0.07246709 0.058698643 -0.0396091 -0.07387696 -0.013240653 -0.08960396
0.06779396 -0.027111905 -0.043127954 0.06267827 -0.027984217 0.07824958 0.0570635 -0.0014060964
0.035759557 -0.01969603 -0.043351498 0.030030088 0.035673294 -0.044131167 -0.059294447 -0.032064218
0.08463893 0.0795364 0.055790387 0.036929544 -0.07114064 0.019155819 0.00700372 0.0808629
0.017281158 0.031154785 0.0621245 -0.03262057 0.033805296 -0.011164484 0.0043533365 -0.02986814
-0.065539725 -0.050431676 0.0003729962 0.03747683 0.009872997 -0.031635623 0.008333974 -0.056891367
-0.051572226 -0.0039033948 -0.023169465 0.016515346 -0.05057199 -0.072559536 -0.03340344 -0.053771388
0.082326286 -0.010584904 -0.008397561 -0.08671408 0.030111 0.015124449 0.0053308867 -0.0599529
0.0029389027 -0.02397893 -0.061101504 0.02128281 -0.0010329456 0.07617832 -0.048440285 -0.082746446
0.0684088 0.062018283 -0.0771309 0.07007207 0.050968934 -0.018993648 0.061467085 -0.0822367
0.044528536 0.04997215 0.09124944 -0.067199714 0.05911063 -0.074794345 0.08600204 -0.0056610764
-0.0030142034 -0.0074211983 -0.07699432 -0.040936936 -0.013504154 -0.025754374 -0.006762614 0.004832931
-0.021266336 0.011289261 0.05882751 0.04079204 -0.037012808 0.014126379 -0.07788982 0.008029892
0.011212014 -0.023753364 0.037053227 0.004587524 -0.05973314 -0.0801473 -0.030602684 0.05451742
-0.016639324 -0.081783764 -0.048806205 0.013470948 -0.08021227 -0.062587894 -0.008608887 -0.0034957996
-0.084613934 0.048875 -0.04682438 -0.022715343 -0.06431572 -0.036298826 -0.041049 -0.0075430693
-0.020017453 -0.060736217 -0.008451642 -0.03136735 0.060729984 0.033859506 0.075985886 0.08777391
-0.04504705 -0.028747976 -0.06273642 0.03085813 -0.0539439 -0.071932696 0.03869332 0.03865686
-0.052093383 -0.095507935 0.07159706 0.04215234 -0.04641927 0.036354773 0.01965055 -0.011118559
0.039466806 0.026290402 0.021848872 0.072393626 -0.083473004 0.018386213 -0.06136156 0.058624722
0.050507713 -0.027026908 0.040429667 -0.02837609 0.017596442 -0.037185077 0.07501642 0.017593937
-0.072347105 -0.07306431 -0.053630672 0.034220602 0.055007305 0.010010163 -0.0799222 -0.074370176
0.004607295 -0.074610956 0.01681223 0.04981757 0.04543086 0.08080272 0.045161948 -0.06718282
-0.078171 -0.07794652 -0.08692457 -0.021294056 0.09317523 -0.093902975 -0.04518935 -0.028335407
-0.077850714 -0.05655903 0.029606065 0.027231181 0.07546526 0.0054111374 0.067036554 0.01031599
-0.0590726 0.016305786 -0.02466788 0.03216332 -0.051527627 -0.014688523 -0.031233732 -0.032987114
-0.07264032 0.066431426 -0.06886226 -0.05271195 -0.04966091 0.030907245 -0.055623226 0.013260607
0.04923352 0.035809733 0.07798859 0.030704793 -0.0047579324 -0.08884831 -0.09672673 0.024504576

conv1.lin_l.bias f4 [128]
00000000: cf66 01ba 766f e83c d030 a7bc 5a96 f9bc
00000010: 3a65 a1bd 3f55 653d 7cb4 1fbd 1095 bf3d
00000020: 2b4a 0fbd 9647 b33d 0526 93bd 2f69 dc3b
00000030: 3ba6 6d3d cdb5 a93c a7c5 9fbd ea40 7a3d
00000040: 21a7 f73c 9400 8dbd 938e 683d 9400 40bc
00000050: 47d7 86bd 46e0 42bd 28f0 963d c1eb cebb
00000060: 8c24 91bc 7d37 453d db2b d6bb 72e7 093d
00000070: 2dc0 8f3d d352 993d 151d b53c bc2a 953d
00000080: 7049 70bc e180 4b3d b869 9b3c 132c aebb
00000090: 192c 93bd 2a6a 89bd 6843 68bd cbce d63b
000000a0: e02f 6f3d 8995 563d 4798 053d b7f5 b23d
000000b0: 0d98 d23d e969 833d 3099 7abd 361a 6b3d
000000c0: d780 37bd 82fa 7c3c db2b 8d3d 94b4 6fbb
000000d0: a5d6 2bbb 2d08 d33c a7bc 7d3c 3809 123d
000000e0: e3cd 8d3d e12e d0bb 36b1 bd3d 9292 aeba
000000f0: 82e5 863c b51e 6cbd c39e 523d 8bd6 cebc
00000100: b7b4 413d 2eeb 3dbd 3fcd 7ebd 43e2 373c
00000110: e917 95bc 21a7 cb3c feed 4a3d ef66 e53c
00000120: d83f ba3d bc5a 8a3d 245d c73d 9e59 80bc
00000130: 8d69 7e3d 3140 85bd c552 2d3d f69b a6bc
00000140: a0b5 9ebd 54c4 903d 3933 b73d 5f00 e1bc
00000150: 73c9 223d 6d6f c23c 46cd 76bc 29d8 40bd
00000160: a256 7d3d 685f 293d 0204 58bd 1fdf 42bd
00000170: b9aa 863d 7f27 403d 2bb2 b63d 7922 953d
00000180: 02a3 803d a6b5 17bd f0bf ab3a 43b1 ba3c
00000190: 3e23 b53d 919b 1c3d fa77 4bbc 0b89 cb3d
000001a0: 1821 6b3d b726 9dbd e7ba bbbc 1133 3ebd
000001b0: 6071 893c 9cee be3d d0b5 c1bc f8fd 683d
000001c0: 239c ccbc 739a 9b3d 437f 3d3d fd75 a43b
000001d0: daec 9f3d b3e1 3cbd e962 c83b a94a 7ebd
000001e0: f770 79bd 43d1 473d e9b4 cbbc 15fd ae3d
000001f0: c5eb 453d efd9 52bd 7467 48bd 4ae1 6ebd
-0.0004936279 0.028373461 -0.020409018 -0.030467201 -0.078806356 0.0559895 -0.038990483 0.09354603
-0.03498284 0.08753888 -0.07184986 0.006726406 0.058019858 0.020716572 -0.07801371 0.061097063
0.03023106 -0.06884876 0.056776594 -0.011718888 -0.0658403 -0.047577165 0.07370025 -0.006314725
-0.017717622 0.04814862 -0.0065359897 0.03366799 0.070190765 0.074865006 0.022108594 0.072835416
-0.014665946 0.049683455 0.018971309 -0.0053153127 -0.07186145 -0.06709702 -0.05670491 0.0065554134
0.058395267 0.0523887 0.032615926 0.08738273 0.10282908 0.06416685 -0.061181247 0.057398044
-0.044800606 0.015440585 0.068931304 -0.0036576139 -0.0026220467 0.025760734 0.015486873 0.035653323
0.069240354 -0.0063532447 0.09262316 -0.0013318828 0.01646686 -0.057646472 0.05142094 -0.025248786
0.047291484 -0.046366863 -0.062207457 0.011223379 -0.018199878 0.024859967 0.049543373 0.028003184
0.090942085 0.067555875 0.09734562 -0.015667733 0.06211238 -0.06506384 0.042315263 -0.02033804
-0.07749486 0.070686966 0.08945317 -0.027465997 0.0397429 0.023734773 -0.015063589 -0.047081146
0.061850198 0.041350752 -0.052738197 -0.047576066 0.065755315 0.046912666 0.089207016 0.07281966
0.06281091 -0.037038468 0.0013103466 0.022789603 0.088446125 0.038234297 -0.012418741 0.09938248
0.057404608 -0.076734 -0.02291627 -0.04643542 0.016777694 0.09322855 -0.023646265 0.05688283
-0.024976796 0.07597818 0.046263944 0.005018948 0.07808848 -0.04611368 0.0061153066 -0.06208292
-0.060898747 0.048783552 -0.024866538 0.08544365 0.04832055 -0.05147737 -0.048926786 -0.05832032

conv1.lin_r.weight f4 [128, 128]
00000000: 962e 883d e2e7 a43d 9a46 adbd 18f6 a83d
00000010: c468 223d 65a0 643d 5664 643d c624 b6bd
00000020: 1122 7b3d ac5a b03c 23d9 87bc 3b9f 9dbc
00000030: c617 043c c6c7 ba3d 4e90 203d b57d 3c3c
00000040: 1575 a93c 1a08 02bc 7758 2a3d 1e21 1bbc
00000050: 1f3d 4e3d 9ebd abbc 9cd4 dfbc 2b6c 8a3d
00000060: e433 4b3b 2547 86bd e084 a13d 3e4d 0ebd
00000070: e525 bfbc 6692 bdbc bc59 35bd f89c 33bc
00000080: f85f 843d 8580 23bd 63ca 43bd fbe8 2d3d
00000090: a9ec a1bc c728 9d3c e395 203d 527e 973b
000000a0: 1b07 dbbc ed45 41bd 9691 9a3d a83d 223d
000000b0: ad41 5d3d 0b93 f63c 9921 4ebc f8d5 c13c
000000c0: b662 883b 3803 4d3d 8855 b2bd f6ae c03c
000000d0: 577e 00bd 35da 863d db72 5cbd b326 af3b
000000e0: df2f f4bc 9fca e63c 8969 d5bc 2a2b 51bc
000000f0: a917 5bbd d730 bfbd 0e60 a5bc e498 6e3c
00000100: 5de4 123d 5f56 663c 5b66 45bd eaae 9fbb
00000110: 98d1 083c 8730 a43d 4932 ff3c 2634 a33b
00000120: 7a6b 11bd 2b2b c73c 3b28 443d 7962 4e3d
00000130: d658 c5bd 560a 95bc b949 953c 55da c3bc
00000140: ecb1 debc 3108 1cbd 035b 0dbd 1217 523a
00000150: 893e 86bd ce6e a6bb b3ea d2bc 3fcf 33bd
00000160: 6ecb fa3c 5cd8 8b3d 0972 b6bd 8bd4 1ebd
00000170: c5af ae3d 5e77 bf3c b301 abbc ed70 74bd
00000180: 7b54 84bd 3c1e 24bd 72b1 a73d 76af 103d
00000190: 3d97 05bd c93e a1bd df9b 84bd 90f6 62bd
000001a0: a8fb 90bb 531d 2b3c f3c9 4abc 48d5 dd3b
000001b0: e3df 723d 9c42 a03d c4d0 c2bc 07f5 27bd
000001c0: c33b 28bc 93fa 213d b6b3 40bd 7eeb 8ebd
000001d0: 06df a33d a3ba 06bd 3caa 8d3d 30ff 693d
000001e0: 13dc 16bd 6a90 50bd 1061 833c 525f bebd
000001f0: a122 5b3c 599b e6bb f7dd c7bc a8d8 983d
00000200: 0713 bcbb 342b 0fbd 6e0a 393d 4634 41bd
00000210: 3490 85bd d94b 933d 3684 3bbd fbc2 b13d
00000220: bb5f 9cbd 5260 3d3d 1214 8e3d 24e6 96bc
00000230: 9b5e 9c3d 9343 96bd 8fd4 63bc 6c51 2dbd
00000240: d24f 3cbc 4b17 193a 5e0f 4bbc f8ad 933d
00000250: ae45 9abd bf63 873d 8657 453d 406d 0c3c
00000260: 495f d83c 8acb b2bd 8d07 bb3d ad32 a1bd
00000270: 3ef7 343d e540 f1bc b08d 76bc 1dc5 a0bd
00000280: 3e87 bcbc cbab 073b e96d 993b f886 963b
00000290: 20bc 96bd 9742 993d 5532 20bc d0e5 ab3d
000002a0: 0ee0 10bd 67b2 923d 0b34 2b3d ad3f 993d
000002b0: 6e91 9a3d 507a 0c3c 539d afbd 2075 6f3b
000002c0: cc4d 18bd 2b21 953d c6ef d43c 5c98 3cbd
000002d0: a0a3 8abd 9ede b43d d856 573c 2ceb 0dbc
000002e0: 4440 ae3c a185 f83c f88d 613d bbb0 8f3d
000002f0: a0a6 4bbc eef9 80bd 7171 6b3d ac0b 8dbd
00000300: 0875 6dbd 3408 7fbd 2a3c a63d 24b2 2dbd
00000310: 399d 823c 66bf 8c3d 1d37 453c ca72 9fbd
00000320: 3be7 30bb 3e23 c43d 98c6 91bd 4e8d 5abd
00000330: 3376 723d f2c9 b1bd 325d 4bbd 2554 6abc
00000340: 8773 a7bd 6bf5 333d 85b2 1c3d dc71 323d
00000350: f4c6 85bd d56a 6abd a9c8 01bc 9927 113d
00000360: 8af1 e4bc bd22 6abd faa3 a7bd 68b2 813b
00000370: fb27 74bd 7f2d c0bd aa2f 8abd 1b2f 9dbd
00000380: 9a08 53bd c029 2e3d c2c8 943a c9ce 30bd
00000390: c348 8ebd 15ad 3dbd 4abb 8e3d cf5d ea3c
000003a0: daa8 0c3d a83e aebc 6888 043c 166f 09bd
000003b0: f540 94bd a3dd 883c 706f 37bd 271d 913d
000003c0: 36be 813d 419e 2dbd 4baf 2a3d 59fd cfb8
000003d0: bf4d 71bd 88d2 63bd 7f28 783a dbcf a7bd
000003e0: d875 2f3d 350e 96bd 3b1d a4bd f324 9ab8
000003f0: 697d a3bd 1d98 853c 6600 80bd ba70 61bd
0.066495106 0.08052041 -0.08460732 0.08250064 0.039650694 0.055817027 0.05575975 -0.08893733
0.061311785 0.02152761 -0.016583031 -0.019240966 0.008062309 0.09120135 0.03920012 0.01150458
0.020685712 -0.007936502 0.041588273 -0.009468345 0.05035126 -0.02096444 -0.02732306 0.06758913
0.003100627 -0.065565385 0.07886672 -0.034741633 -0.0233335 -0.023141097 -0.04427503 -0.010962717
0.06463617 -0.039917488 -0.047800433 0.042458516 -0.019766169 0.019184483 0.039205443 0.004623213
-0.026736787 -0.047185827 0.075472996 0.03960958 0.05401771 0.030099412 -0.0125812525 0.023661599
0.004162158 0.050051898 -0.0870772 0.023520928 -0.031370487 0.065845884 -0.053820472 0.0053451895
-0.029807983 0.02817279 -0.0260513 -0.012766639 -0.05348936 -0.09335487 -0.020187404 0.014562819
0.035862315 0.014058678 -0.048193317 -0.0048731463 0.008350752 0.08017068 0.031151908 0.004980582
-0.03550289 0.024312576 0.04788993 0.05038688 -0.09636085 -0.018193405 0.01822363 -0.02390782
-0.02718445 -0.03809375 -0.034510624 0.0008014302 -0.065548964 -0.005079127 -0.025746679 -0.043898817
0.030614581 0.06828377 -0.08908469 -0.038776916 0.08529619 0.023372348 -0.020874834 -0.059678007
-0.06461426 -0.040067896 0.08188142 0.035323583 -0.032614935 -0.078733034 -0.064750426 -0.05541092
-0.004424531 0.010444003 -0.01237725 0.00676981 0.059295546 0.07825205 -0.023781188 -0.04100516
-0.010268155 0.039545607 -0.047046386 -0.0697851 0.08001523 -0.032892834 0.06917235 0.05712813
-0.036830973 -0.050918974 0.016037494 -0.09295525 0.013374955 -0.007037562 -0.024397833 0.07463199
-0.005739573 -0.03495331 0.045175962 -0.047168992 -0.06521645 0.07192201 -0.045780383 0.08679768
-0.07635447 0.046234436 0.06937422 -0.018420286 0.07635232 -0.073371075 -0.013905658 -0.042313978
-0.01149364 0.0005839958 -0.012393801 0.07210916 -0.075328216 0.06610822 0.048179172 0.008570969
0.026412623 -0.08730228 0.091322996 -0.07870994 0.0441811 -0.02944989 -0.015048429 -0.078500964
-0.023013707 0.0020701762 0.0046822918 0.0045937262 -0.07360101 0.07483404 -0.009777625 0.08393443
-0.035369925 0.07162934 0.04179768 0.07482848 0.0754727 0.008574083 -0.08574929 0.0036538318
-0.037183568 0.07281717 0.02599324 -0.04604374 -0.0676949 0.08831523 0.013143264 -0.008662026
0.021270879 0.030337157 0.055067033 0.070161305 -0.012429863 -0.0629767 0.057481233 -0.06886992
-0.057972938 -0.062263682 0.08116944 -0.042406216 0.01594411 0.06872444 0.012037066 -0.07785566
-0.0026993293 0.095770344 -0.07117957 -0.053357415 0.059194755 -0.08681096 -0.049649425 -0.014302288
-0.08176332 0.04393522 0.038256187 0.043565616 -0.06532088 -0.05723079 -0.007921376 0.035438154
-0.027947206 -0.057162035 -0.08185573 0.0039580353 -0.05960844 -0.09383678 -0.067473724 -0.07675
-0.051521875 0.042520285 0.0011351334 -0.043165956 -0.06947472 -0.046307642 0.06969316 0.028609185
0.034340717 -0.021270111 0.008089162 -0.033553205 -0.07238952 0.016707247 -0.04478401 0.070856385
0.06335108 -0.04238725 0.04167108 -9.917719e-05 -0.058912035 -0.0556207 0.00094664836 -0.08193942
0.042836994 -0.073269285 -0.08013388 -7.3501746e-05 -0.079829045 0.016307885 -0.06250076 -0.055039145

pooling1.weight f4 [1, 128]
00000000: 826d 723d a05a 9bbc 0265 313a c425 97bd
00000010: faa9 3cbc 1726 8a3d 5882 f0bc 9170 80bc
00000020: 31d4 053d 9499 9fbd e3f8 93bd c0e7 54bd
00000030: 1e76 8dbd b4a9 b33b 6265 913d 51dc bcbb
00000040: 3bf0 e23c c9e8 2ebd b986 713c a9a0 acbd
00000050: 5a84 3cbd 7568 983d 9737 b6bd aa86 873d
00000060: a39f fb3c d29e e4bc 568f 33bc bd79 9abc
00000070: 1e34 b43c cf78 e3bc 5f33 083d cf8c dfbc
00000080: 68a5 113d 685e 1e3c 2cf2 9d3c c8c3 81bd
00000090: d6c9 c83d ac70 7dbd 669a b1bd d168 a03d
000000a0: 92cb bb3c 6634 763d 0aba 7d3d 36ee 8a3d
000000b0: 45af 9ebd b4a7 c0bc 6f45 0bbd 23da 7e3d
000000c0: 0854 acbb f0cb 5cbd 350f 07bd 8e7a 993c
000000d0: ec89 0dbd 0389 18bd c6ff 8abd 8be9 863d
000000e0: de4e 5e3d ae6a 85bd de63 923d 4d7a d33c
000000f0: a47f 103c e32c aabc dd83 0fbd 2d8a 893d
00000100: dd8c 94bd 7d02 b83b 3666 703d 17b7 cf3c
00000110: a147 7cbd 84c4 41bd 1b7c 31bc ffb9 583d
00000120: f3b6 96bd 9374 b1bd 8a34 35bb 36b4 29bd
00000130: cac3 3dbc 91ee 77bc d875 7c3d 7233 983d
00000140: 4a47 2e3d 6b8e 8bbc 645c 7d3d aae0 8d3d
00000150: 70fd 11bd f9b7 113d 0ed1 9dbd ee16 96bd
00000160: 098d adbd b5b0 74bd a23b 8abb 09db 6ebd
00000170: da58 07bd 886c 56bd 4ea2 a6bd 58ba a8bd
00000180: ef5b 8b3d b4ad b0bc 8b0a 553d a22b 2d3d
00000190: 58b8 733d a3cc b13d 387a ac3c 67c2 483d
000001a0: 1574 163d f78c 0c3d 7106 aebd b484 aebd
000001b0: ae17 853a 3fbe 8cbd 7146 103d a7da 4a3d
000001c0: 7332 6e3d 201c aa3d 5e0d 7b3d 74f6 a6bc
000001d0: 7355 063d f47c bdbc 51ca a3bd afb4 a9bd
000001e0: d023 62bc 8381 04bc f2c9 533d 38d1 9d3d
000001f0: b753 a93d 359c 5b3c 30af 4c3d 36d5 923d
0.059186466 -0.018964112 0.00067670655 -0.0738025 -0.011515135 0.06745546 -0.029359028 -0.015678676
0.032673065 -0.077929646 -0.07225206 -0.051978827 -0.06907295 0.0054828767 0.07099415 -0.0057635684
0.027702441 -0.04270247 0.014741593 -0.08429081 -0.046024658 0.074417986 -0.08897322 0.06617482
0.03071577 -0.027907763 -0.010959467 -0.018856877 0.021997508 -0.027767567 0.033252116 -0.027288822
0.035558134 0.009666063 0.019280516 -0.063361704 0.09804122 -0.06187503 -0.08672027 0.07832492
0.022924218 0.060108565 0.061945 0.067837164 -0.07748274 -0.023517467 -0.034001764 0.06221975
-0.0052590407 -0.053905427 -0.032973487 0.018735196 -0.03455536 -0.03724004 -0.06787066 0.065875135
0.054274432 -0.06514488 0.071479544 0.025815153 0.008819494 -0.020773357 -0.035037864 0.06715808
-0.0725343 0.005615531 0.058691226 0.025355859 -0.06159175 -0.047306553 -0.010832812 0.052911755
-0.073591135 -0.08664813 -0.0027649724 -0.04143163 -0.011582324 -0.015132562 0.061635822 0.074316874
0.042548455 -0.017035684 0.06185569 0.06927617 -0.035642087 0.03557584 -0.0770589 -0.07328592
-0.08474166 -0.059738833 -0.0042185346 -0.058314357 -0.03304372 -0.052349597 -0.08136426 -0.08238667
0.06804644 -0.021567203 0.052012008 0.04227794 0.059501976 0.086816095 0.021054372 0.04901352
0.0367318 0.034314122 -0.08497322 -0.08521405 0.0010154152 -0.06872224 0.03522343 0.04952493
0.05815358 0.08306146 0.061292045 -0.02038119 0.032796334 -0.023130871 -0.07997573 -0.08286416
-0.013802484 -0.008087519 0.051706262 0.07705921 0.082679205 0.013403942 0.04997176 0.07169573

conv2.lin_l.weight f4 [128, 128]
00000000: 2ef7 b43d 5baf 1b3d 2c46 9a3d cd63 7fbc
00000010: 0aeb e5bc 92df 49bd d666 96bd a675 a7bc
00000020: 3c8b 6abd 96b5 aa3d 5d7d 36bd 82c2 6dbd
00000030: f30b 95bd a599 27bd deb4 4b3d fc7e b03b
00000040: 6fda 003d ca50 d53c fbce 1cbd be7e fabb
00000050: f542 863d f0ac 883d d5f5 26bc e0a6 3ebd
00000060: 60bd 7abd c2e8 78bd f6ec b13c e152 5b3d
00000070: 201a 3f3c ed12 3b3b 6c5f 273d 63b0 9bbc
00000080: 24c9 143d ebf2 2a3c 81c2 f4bc 615c 8b3d
00000090: c26e 59bd f383 adbd bea1 153b 3983 55bb
000000a0: 54d9 0abc 809b bfbb 4054 f3bc 4321 70bd
000000b0: 1ac4 973b 8852 2d3d 0a0a 73bd af7d f1bc
000000c0: 5ac6 8b3d a2f1 943c 5c17 48bd 793c 7fbd
000000d0: b432 743d a732 a83d a7c9 53bd 73ea 0c3d
000000e0: fc3a 93bd 87cc 06bd f4f2 58bd 5b1c b63d
000000f0: 0b90 89bd 59a3 89bd 9ce7 4fbc 3943 07bd
00000100: 18cf 87bd a2bb 933d f942 0abd 467c 963d
00000110: d4b6 853d 300e 0f3d 4876 a9bd 838d 753c
00000120: 2ea3 84bd 2ac9 9b3d 2cfb 983c 8577 7ebd
00000130: b9b7 53bd 58a4 1d3d c6ad 613d be5e 75bd
00000140: ccf6 67bc 6c63 9f3c 3feb a83d 069b e23c
00000150: f286 95bd 25c8 763d 8e4e 1ebd b4e8 3bbd
00000160: 7da0 09bb 122f a73d c990 583d c711 7c3d
00000170: 7459 8abd 9083 7fbd 04d3 94bd b6b0 683d
00000180: 8321 a93c 63a9 383c e41f b2bd d7ea 84bd
00000190: 516a b9bc 0d1d cdbb 9b52 53bd dfb5 efbc
000001a0: 6c55 4fbb 17a7 ed3b 795a bf3d c32a 19bd
000001b0: 3585 b13c d1be 1dbd e486 ccbb 8208 8cbd
000001c0: 703f 86bc 01f9 09bd f321 45bd 5b5a 1cbb
000001d0: d826 c5bc c5c9 253d 10ac 8fb9 f48d 4abd
000001e0: 36b8 8dbc f97a a83d dfaf c1bc 15b0 893d
000001f0: f327 c8bc ded5 093c 918a fbbc f74a 0b3d
00000200: 4668 efbc 0949 2d3c 2da7 733c f6b6 3c3d
00000210: 385a 613d 61eb 143c d8b0 893d 8ae0 77bc
00000220: 6a5e 873d 464b 29bc b9cc 893d bb4e 5f3d
00000230: 7ca1 84bd 42ad 96bb 1ac2 6fbc e157 bc3d
00000240: a1e2 80bc 2c7f 8cbd c63f cb3b 0f46 943c
00000250: 064f 8dbd f3f8 c23c 51b1 613b d841 893d
00000260: e9a5 ae3d e78d 81bd 8e42 95bc 6b0e 783d
00000270: fa62 a63d 8030 5e3c dc50 523d cbfb 97bd
00000280: cdbd a13c 2090 2f3d 2fcc dcbb 26cc 283d
00000290: cc85 953c bb6a 4bbc 4585 acbd adee 24bd
000002a0: dd33 21bc 74ef 9d3d 2194 8a3d 1207 c0bc
000002b0: ffc5 5c3d 1bec 5e3d 84f7 61bd d16f 883d
000002c0: 04bf a43d d894 f93b ff8f 94bd 4860 c33d
000002d0: 8153 30bd b77b a1bd 47fa 9c3d 3faf b7bb
000002e0: ccfe 64bc e3b2 89bc 8111 b43d 2e2d 91bd
000002f0: 61bd 1fbd a41d 64bd c019 27bd 22bd c53c
00000300: 4ed1 743d 53c5 8ebd c527 cb3c b76d 773d
00000310: 27b6 af3c 8ce0 91bd 22dc 8a3d 75de b03d
00000320: b21f 84bd ece4 32bd c2a2 a73d 3c26 9c3c
00000330: 15ff 743d b4ee 2b3d 8ed7 70bd e1e9 d5bc
00000340: ccf2 cfbb 0ebd b93d 8b55 323d 1bd5 8b3d
00000350: a377 433c 4cd7 a93d 14c8 63bd a8f5 18bd
00000360: f1a8 273d a8c9 8fbd 7e5b 9bbd f708 91bd
00000370: a406 493d de1a 79bd 07d9 893c 6745 5bbd
00000380: 00c9 d43c dccf c7bc 62af 313c 7bca 1dbc
00000390: 00a7 ca3c 545f 18bd 7010 763d de0d 9cbd
000003a0: cbf2 c03d 01c6 bfbb 6daf a7bd 302b 5c3d
000003b0: 9eed 4f3d 8642 d9bc c5a5 103d 7762 863c
000003c0: b279 7dbc 1c8b 3dbd 3a0b 3f3d a72a 513d
000003d0: 9c39 343c c6fd 16bd 456c 31bd daeb 7dbb
000003e0: 568e a23d 804a 62bd 4638 d53c 8adc b73d
000003f0: 9290 933c 6238 f23c 0762 b4bc 8f0b 5fbd
0.08836208 0.03800903 0.075329155 -0.015587759 -0.028066177 -0.04928548 -0.07343833 -0.020441841
-0.05726169 0.08335416 -0.04455315 -0.058046825 -0.0727767 -0.04091801 0.049733035 0.0053862315
0.031458315 0.0260395 -0.03828333 -0.0076445034 0.0655574 0.0667361 -0.010190447 -0.046545863
-0.06121576 -0.06076885 0.021719437 0.053545836 0.0116639435 0.0028545216 0.040862486 -0.019005006
0.036324635 0.010433893 -0.029877903 0.06804729 -0.053084143 -0.08472433 0.0022832002 -0.0032579436
-0.008474667 -0.0058473945 -0.02970326 -0.05862547 0.0046315314 0.042315036 -0.059335746 -0.029478876
0.06824942 0.018181626 -0.048850402 -0.06231353 0.059618667 0.08212786 -0.051705983 0.034403276
-0.07188985 -0.032909896 -0.052966073 0.08892127 -0.06716927 -0.06720609 -0.012689497 -0.033023093
-0.06631297 0.072135225 -0.033755276 0.07347922 0.06529012 0.03492564 -0.082745135 0.014987352
-0.064764366 0.076067284 0.018674456 -0.0621257 -0.051688883 0.03848681 0.055097364 -0.059904806
-0.014157962 0.019456588 0.08247995 0.027661812 -0.073011294 0.060249466 -0.038649134 -0.04587622
-0.00210002 0.08163275 0.052872453 0.06154039 -0.06755343 -0.062381327 -0.072668105 0.05680915
0.020645862 0.011270854 -0.08697489 -0.06490105 -0.022633703 -0.0062595666 -0.05159245 -0.029261528
-0.0031636609 0.0072525847 0.09343428 -0.037394296 0.021669963 -0.038512055 -0.006241666 -0.0683756
-0.016387671 -0.033684734 -0.04812808 -0.0023857567 -0.024066374 0.040475626 -0.00027403282 -0.049451783
-0.017299753 0.0822658 -0.023643432 0.06723038 -0.024433112 0.008412806 -0.030705722 0.03400704
-0.029224526 0.010576495 0.014871401 0.046072923 0.05501768 0.009089322 0.067231834 -0.015129218
0.06609805 -0.010332888 0.06728501 0.054518443 -0.06476113 -0.0045982907 -0.01463368 0.09196449
-0.015733065 -0.068601936 0.0062026707 0.018099813 -0.06899838 0.023800349 0.0034437964 0.06702012
0.085277386 -0.06325894 -0.018220212 0.060560625 0.08124347 0.013561368 0.051346645 -0.074210726
0.019743824 0.042862058 -0.006738208 0.041210316 0.018252276 -0.012415583 -0.08423857 -0.04026668
-0.009839025 0.07711688 0.067665346 -0.023440871 0.05389976 0.054424386 -0.05516769 0.06661952
0.08044246 0.0076166205 -0.072540276 0.095398486 -0.043048386 -0.07884925 0.07664924 -0.0056056078
-0.013976764 -0.016808933 0.08792401 -0.070886955 -0.038998965 -0.05569233 -0.04079604 0.024138037
0.05976992 -0.0697123 0.024799237 0.060407367 0.021449162 -0.07122907 0.06780268 0.0863618
-0.06451358 -0.04367535 0.081853405 0.0190612 0.059813578 0.041975692 -0.05879932 -0.026112499
-0.0063460823 0.090692624 0.04353861 0.06827756 0.011930379 0.08293018 -0.05561073 -0.03734365
0.0409326 -0.07020885 -0.0758581 -0.07081788 0.0490786 -0.06081664 0.01682712 -0.053532984
0.02597475 -0.024391107 0.010845037 -0.009630795 0.024737835 -0.037200287 0.06007427 -0.076198325
0.09421309 -0.0058524613 -0.08187757 0.053752124 0.05076372 -0.026520979 0.03531434 0.016404374
-0.015470909 -0.046275243 0.046641566 0.051066067 0.011000063 -0.03686311 -0.043316144 -0.0038745315
0.07937305 -0.05524683 0.02602781 0.08977611 0.018013272 0.029567901 -0.0220194 -0.054454383

conv2.lin_l.bias f4 [128]
00000000: 7775 3bbd 061c a0bd eebe 2cbd 026c 983d
00000010: ac58 6f3d fa38 db3c b77a 06bd c3c0 4dba
00000020: f843 4b3c 03fb 633c 9669 343d 1ad4 0b3d
00000030: 94b2 813b 9042 afbd a07e 69bd 019b b33d
00000040: c008 8a3d aeb3 303b 5acc 2fbd e3b3 51bc
00000050: 2015 90bd 422d 4b3d 445e 383d 5645 5d3d
00000060: c6cd e5bc dbc1 35bd d7e8 2f3d ab06 d43c
00000070: 6b3e 143c bdec 553d 5c51 58bc ce93 83bd
00000080: 4866 103d 71af 8c3d 0741 87bd 81a3 b33d
00000090: 2fe7 2dbd 1734 e13b 2266 b63c 55aa b5bd
000000a0: dccd ab3d e338 7cbd b0dc bf3c 4302 b3bc
000000b0: 8a84 0cbd ef35 3dbd 8c27 2fbc 4727 323d
000000c0: 9d8f 3b3d dd75 c3bc 0521 8d3c a13d 7bbd
000000d0: 3a7a 68bd 1b1e 5fbd 5838 483d 0fbe 3b3d
000000e0: 1680 913d f9ac 2c3d 5eab 81bd 2082 89bd
000000f0: fa13 1a3d f6c2 2a3d 272f 073d 31ee 193d
00000100: d282 8a3d fd0d 943d 8b99 38bc 19aa e23c
00000110: 3621 3a3c 53ff af3d 2513 3a3c c617 443d
00000120: 0b00 07bd e77e 33bb 5157 ea3c 0ec9 86bd
00000130: c485 bbbb 7fe0 853b b3b7 8dbd 87b0 8e3d
00000140: 65a0 17bc d146 efbc e7bb 623d 2512 563d
00000150: 4dfd 103c 2e43 b3ba 4cc4 68bd b8da 9d3c
00000160: f502 90bd 4da5 3e3c 6a96 fdbc c789 653d
00000170: 0489 d2bb 7892 a9bc 88be 133d 2caa 3bba
00000180: d7be 8bbd b9ef 4c3d 5438 593c d413 5b3d
00000190: 860d 9a3c 66f7 8abd ba65 ecbc 90ff 23bd
000001a0: b528 a23c b184 903d 4783 7dbb 2370 eabc
000001b0: 3872 4dbb a318 c33c 4a8c 513d 3813 053d
000001c0: 1ca3 64bd 0dd4 7dbd 6a91 8cbd 1923 78bc
000001d0: 4f79 40bc a660 2cbd 51cd 69bd 7313 78bd
000001e0: a70b 97bd c225 4dbc da96 8ebc daa8 cd3b
000001f0: 7368 c13d 4b63 a5bd c4ab b3bc 5db3 07bd
-0.04576632 -0.07817845 -0.042174272 0.07442476 0.058434173 0.026760567 -0.032831874 -0.0007848853
0.012406342 0.013914826 0.044046007 0.034137823 0.0039580557 -0.08557618 -0.057005525 0.08769799
0.0673995 0.0026962566 -0.042919494 -0.012799236 -0.07035279 0.049603708 0.045011774 0.054021202
-0.028052222 -0.044374328 0.042946663 0.025882086 0.009048085 0.052227724 -0.013202991 -0.06424676
0.035253793 0.068694 -0.066042 0.0877142 -0.042456802 0.0068726647 0.022265498 -0.08870379
0.08388874 -0.06157769 0.023420662 -0.021851664 -0.034306087 -0.046194013 -0.010690581 0.04349449
0.045791257 -0.023859913 0.017227659 -0.06133807 -0.05675719 -0.05447207 0.04888186 0.04583555
0.071045086 0.042157147 -0.06331514 -0.067142725 0.037616707 0.041689835 0.033003952 0.037580673
0.06763233 0.072292306 -0.011267076 0.027669 0.011360457 0.08593621 0.0113571035 0.047874235
-0.032959025 -0.0027388872 0.028606089 -0.06581317 -0.005722733 0.0040856 -0.069198035 0.06967264
-0.00925455 -0.029208573 0.05535498 0.052263398 0.008849454 -0.0013676637 -0.05682783 0.019269332
-0.07031814 0.01163609 -0.030955512 0.056039598 -0.006425025 -0.020699725 0.036070377 -0.00071588415
-0.06823509 0.050033305 0.013258059 0.053485706 0.018805277 -0.06785469 -0.0288571 -0.040038645
0.019794801 0.07056559 -0.0038682984 -0.028617924 -0.0031348597 0.023815459 0.05115918 0.03248903
-0.055819616 -0.061969806 -0.06863673 -0.015145087 -0.011747672 -0.04208436 -0.05708057 -0.060565423
-0.073752694 -0.012521209 -0.017405916 0.006276232 0.0944375 -0.08075579 -0.02193249 -0.03313004

conv2.lin_r.weight f4 [128, 128]
00000000: d688 5dbd bf1a b3bd 90d8 133d 015f 4c3d
00000010: c611 8dbc 35a6 c3bb 2d95 323d c8d6 823c
00000020: dc5c b73d bce3 06bd b0a3 d53b 9a78 313c
00000030: 66f9 9f3d 6d67 b8bd 452e a3bd e0e7 a73c
00000040: 3aec 68bd 0adb 983c c6b6 c63c d6e1 b8bd
00000050: 9592 87bd cb82 723c 0176 723d b22f ca3a
00000060: cb54 233d bd6f 2cbb 7614 97bd e996 57bd
00000070: 5a81 533d 4a49 99bd d906 02bd ca7d 59bd
00000080: 2467 023d 96fd 923c 734e 4e3d 9a29 18bd
00000090: bec1 423d 3946 3aba 6183 963c 70d4 7fbd
000000a0: b64a 803d 268c af3d f2fe debb 80d5 a5bd
000000b0: 8ade 723c db0c af39 f63f 8a3c dbb6 243d
000000c0: 58f0 993d e870 f03c 49ca 493d 6bfd 323d
000000d0: f0e6 1dbd a217 49bd 6daa a53d 9f01 a83d
000000e0: 9a8a cf3c 0c5e e63c dd77 4bbc c873 a13d
000000f0: 9206 0a3d 1f95 84bd d5b7 8e3d 47d6 dc3c
00000100: 82bb 823d 489e c33c 6a5b 33bc c0ca c93c
00000110: e022 f1bb d7ed 5abd 240a 9cbd 1d27 8cbb
00000120: f4df 28bd ace9 abbd 639c b43c ad2a 443d
00000130: 7566 63bc e89d 89bc e80f 083d 971d 223c
00000140: df36 e2bc 241b 71bc fb5b bcbc 4cdb 433d
00000150: 86a5 e8bc 72dd 513d 10d6 97bd 27ed 8ebd
00000160: 9f02 ffbb d6b7 843d dfc6 6ebc e34e 70bd
00000170: 7627 c63d ad88 493d 7b05 afbd b4f4 143c
00000180: 4383 a33d ab3e a03d 9386 9bbd a0d9 5ebc
00000190: 2438 6dbd fbbb 473d 729b ad3d 4f1f 043c
000001a0: 37e2 27bb 0396 8c3d 01df 72bc c3df 913c
000001b0: 8011 65ba 938b b63d 7879 a03d cfa7 f83c
000001c0: 4f28 eebc aabb b93c b8fb 7fbc b509 703d
000001d0: 912d 15bc 3841 87bb 23df 51bd a4b0 cf3c
000001e0: bb7a 7dbd 6714 923b 3854 eabc 8d3a 03bd
000001f0: 5217 af3d ccd4 913d d870 8a3c 2cb4 76bd
00000200: 7edc 6cbd 0261 143d 61b5 78bd dd43 253d
00000210: 0082 71bc 2a6b 23bd a649 1dbc 5b7d 993d
00000220: f5ab 60bc 44c3 bd3d 2a46 013d 5c07 4b3d
00000230: 53ce 8c3d b406 57bd c9c8 c43d c551 a2bc
00000240: 03c4 92bb f8ad c23c 5e9a c33d 4c93 6bbd
00000250: f735 55bd 8ada 1c3d 1404 bc3d 2bfc 933d
00000260: ad85 1ebd a66f 4d3d 1b18 be3c 13bb 64bd
00000270: aec0 a93d 497e 8ebd 4f1c 8d3d 2d6a a43d
00000280: 940e 303d daa8 dbbc 96b0 383d 0f4f 863d
00000290: 86fa 2f3c c703 683d 1474 cabc f8dc ab3d
000002a0: 8232 89bd 8f09 913c 9a52 5e3c ee3d 4c3d
000002b0: 3dae eabb 141e 6abd 816f c03d 629a 823d
000002c0: 60aa e93c c8ec cd3d a7ac 6fbd 1cfc f83a
000002d0: a337 d5bc 61ad 3abd 3f29 0c3d 1b3a 9a3d
000002e0: 9881 593d a4dd c1bb 4b91 99bd c2e7 03bd
000002f0: 789f 98bc c453 bb3d 3ba9 7abd 10ee 7abb
00000300: 11e4 713d 6f9d 163d e293 743d 21a2 a03d
00000310: d6e6 953d c69a 06bb 0112 523d 8a0b 75bc
00000320: 47b4 343d 22ed 723d 3a8e 05bc 178a 8c3c
00000330: 9bb4 51bd 6ae5 813d 9b02 82bd 1727 2f3d
00000340: 7ee5 40bd 2f1f ae3d c551 933d 1a6f ce3b
00000350: 2b03 c73c 106a 57bd db98 cb3d 93a2 913d
00000360: ec72 b73d b3d4 9b3d 4fe6 4c3d de49 efbc
00000370: 81f5 e83c 6db1 9d3d 77fa 02bd 35db 68bd
00000380: 67b3 1c3d 193e a03d f012 983c 155f 8ebd
00000390: dc95 94bd 2195 cd3d a150 59bd 95ae 42bd
000003a0: ddea b6bc 6528 ad3d 3b57 43bd bc5f bc3d
000003b0: 5c9c f9bb f4c8 f3bc b318 2b3d b357 ad3d
000003c0: 991f 80bd 7f64 c03d 653c e03b a34b 553d
000003d0: 999c a33d 31e2 333d 10d9 3c3d 5620 ce3d
000003e0: 5c80 7d3c 2301 1b3d a622 8ebd 7c7d 89bc
000003f0: 659d 8e3d 0999 ce3c 6c8b 0bbd 30dc 183d
-0.054085575 -0.08745336 0.036095202 0.04989529 -0.01722039 -0.005970741 0.043599296 0.015971556
0.089532584 -0.03293203 0.006519757 0.010831976 0.07811241 -0.09004102 -0.079678096 0.020496309
-0.05686591 0.018659133 0.024257075 -0.0902745 -0.06619755 0.014801691 0.05919457 0.0015425591
0.039875787 -0.0026311718 -0.073769495 -0.052634154 0.05163703 -0.07484682 -0.03174481 -0.053098477
0.031836644 0.017943185 0.050367784 -0.03714905 0.04754805 -0.0007105801 0.018373193 -0.062458456
0.0626425 0.08571653 -0.006805294 -0.080973625 0.014823565 0.0003338818 0.016876202 0.040213447
0.07516545 0.029350713 0.04926518 0.04369871 -0.038550317 -0.049094804 0.08089147 0.08203434
0.025334645 0.028121017 -0.012418714 0.07883412 0.033697672 -0.06473755 0.06968657 0.026957644
0.063834205 0.023879185 -0.010947088 0.024632812 -0.0073588938 -0.053449478 -0.07619122 -0.0042771236
-0.041229203 -0.08394179 0.022047227 0.04789226 -0.013879408 -0.016798928 0.033218294 0.00989475
-0.027614055 -0.0147159435 -0.022993078 0.04781656 -0.02839924 0.051236577 -0.07413876 -0.06978827
-0.007782295 0.064803764 -0.014573782 -0.058668982 0.09675495 0.04920261 -0.08545967 0.009091545
0.079840206 0.07824453 -0.07594027 -0.0136016905 -0.057914868 0.048763257 0.084769145 0.008064105
-0.0025617012 0.0686455 -0.014823676 0.017806893 -0.00087382644 0.089133404 0.07835668 0.030353455
-0.029071955 0.022672493 -0.015623979 0.058603007 -0.009105102 -0.0041276477 -0.05123819 0.025352784
-0.061884623 0.0044579986 -0.028604612 -0.03203826 0.0854937 0.07120666 0.016899511 -0.06023042
-0.057827465 0.036225326 -0.06071985 0.040347923 -0.014740467 -0.03989712 -0.009600079 0.07494613
-0.013712873 0.092657596 0.031561054 0.049567565 0.06875291 -0.052496627 0.09608609 -0.019814381
-0.004478933 0.023764595 0.095509276 -0.05751352 -0.052053418 0.038294353 0.09180465 0.072258316
-0.038701702 0.050155304 0.023204854 -0.05584247 0.08288704 -0.06957681 0.06890165 0.08028064
0.042982653 -0.026813913 0.04509028 0.06558048 0.010740882 0.056644227 -0.024713553 0.08391756
-0.06699087 0.017704753 0.013569498 0.04986375 -0.007161884 -0.05715759 0.09396268 0.063771024
0.028523624 0.10054928 -0.058514263 0.0018996033 -0.026027506 -0.045575503 0.034219023 0.07530614
0.053102106 -0.005916314 -0.074984156 -0.032203443 -0.018630728 0.091468364 -0.061196547 -0.003828887
0.05905539 0.036771234 0.059711345 0.07843424 0.07319419 -0.002053903 0.0512867 -0.014956364
0.04411724 0.05930818 -0.008151585 0.01715569 -0.05119763 0.063425854 -0.06348153 0.04276189
-0.04709386 0.085020415 0.07193331 0.0062998654 0.024293503 -0.052591383 0.09941264 0.07111087
0.089574665 0.076089285 0.050024327 -0.029210027 0.028437378 0.07699857 -0.031977143 -0.056849677
0.03825703 0.07824344 0.018563718 -0.06951729 -0.07255146 0.1003821 -0.05305541 -0.047529776
-0.022328788 0.0845497 -0.04769061 0.091979474 -0.0076175164 -0.029758908 0.041771602 0.08463993
-0.06256027 0.09394168 0.006843137 0.052074086 0.07988853 0.043916885 0.046105444 0.10064761
0.015472498 0.03784288 -0.069402024 -0.016783468 0.069636144 0.025219457 -0.03406851 0.037319362

pooling2.gnn.lin_rel.weight f4 [1, 128]
00000000: 7663 973d 4e2e a03d 0ad0 70bd 1368 a43d
00000010: ead2 85bd 2903 183d 16a3 683d c1b7 1e3c
00000020: 6d0c a5bd 9799 21bd 5efd aebd 8f89 85bd
00000030: 906d 7b3d 366d a7bd bdce b23d e71b 053d
00000040: 01ed 963c 739d 743d 0712 ac3d e087 363d
00000050: 8e8f 2c3d ef38 abbd 3b46 9c3c 56b7 9bbd
00000060: 205f 9fbd 8cbf a13d 31cd 643b 5926 13bd
00000070: 2e76 953d 8c5d a8bd 5d57 883d e177 a0bc
00000080: e015 87bc 2be6 b63c 8919 b63d 6218 523d
00000090: b5c3 97bd e415 8cbd 669b 1cbd 3ec2 e83c
000000a0: c0a9 85bd 52b1 863d 1fb9 88bd f830 63bd
000000b0: dff6 f43c 1b1b ea3c 1326 29bd 0f0e b33c
000000c0: 02ad 063d 086a 0dbd 98c0 a4bc 6e47 a43d
000000d0: 0be9 6cbd fd39 cd3c 10e3 a3bc 9bf1 8fbd
000000e0: ff99 203d 1da5 903d 6eaa 8dbd 0038 e4bc
000000f0: 1905 59bc f2a1 c13d a804 ab3c a5a4 1bbd
00000100: eaf1 87bc 03a0 28bd 21a9 e33c 94cf 883c
00000110: 9b9d 74bd 1b74 ef3c b477 9f3d 71bc 77bd
00000120: 8e40 a7bb 378c a4bd a125 a5bd 9916 60bd
00000130: f516 913d c3ab ee3c 8550 64bd d3be e03c
00000140: 357b 66bd 29aa 97bc f474 643d 2da7 9b3d
00000150: 5e10 613d aea5 353d 70a7 503d c366 7c3c
00000160: 35fc 123d 250f 80bd 77bc 603d 9663 9ebc
00000170: 41b6 0f3d 84f5 06bd a116 183d c6af 903d
00000180: 627d bb3d 074e 8f3d 938e 4d3d d197 9c3b
00000190: 1e6c 223d a054 4f3c e81a 52bc 875d 033d
000001a0: 4baa a03d dc8a b33d 12ec 123d e26e 98bc
000001b0: d84e 78bd faf1 d8bc 84c5 253d a2d3 3abb
000001c0: 0db4 21bd fa3f 0abd 92e5 b43d 9301 d83c
000001d0: 9cf6 c73b 004b 793d e1ac 72bd e886 773d
000001e0: 442b 893d 209e a03d c17a 92bc 95be a1bd
000001f0: 8785 4fbd 880e 7e3d 6239 583d 1318 64bc
0.073920175 0.07821332 -0.05879215 0.08027663 -0.06534369 0.03711239 0.056796156 0.009687365
-0.08059011 -0.039453115 -0.0854442 -0.06520378 0.061383784 -0.08175127 0.087308384 0.032497313
0.01842356 0.059720468 0.08401876 0.044563174 0.042129092 -0.083604686 0.019076457 -0.07603328
-0.077818155 0.07897863 0.0034912343 -0.035925243 0.072979316 -0.08220968 0.06657288 -0.019588413
-0.016489923 0.02232655 0.08891589 0.051292785 -0.07410375 -0.06840113 -0.038234137 0.028412934
-0.06526518 0.0657679 -0.06675934 -0.055466622 0.029902874 0.028577378 -0.041296076 0.02185729
0.032879837 -0.034524947 -0.020111367 0.08021437 -0.057839435 0.025052065 -0.020005733 -0.070285045
0.039209362 0.07062743 -0.069172725 -0.027858734 -0.013245844 0.09454717 0.020876244 -0.037998814
-0.016594846 -0.041168224 0.027790608 0.016700543 -0.059720617 0.029230168 0.077865034 -0.060482446
-0.005104131 -0.08034556 -0.08063818 -0.05470905 0.07084457 0.029134637 -0.055740852 0.027434742
-0.056269843 -0.018513756 0.055775598 0.076002456 0.05494725 0.044347458 0.05094093 0.01540536
0.035885055 -0.062528886 0.054867234 -0.019334596 0.03508592 -0.032948986 0.037130956 0.07064776
0.09154774 0.069973044 0.050184797 0.00477884 0.03965389 0.0126544535 -0.012823798 0.032071617
0.07844981 0.0876672 0.035869665 -0.01860756 -0.060622066 -0.02648257 0.04047157 -0.002850749
-0.03947835 -0.03375242 0.088328496 0.026367938 0.006102396 0.06086254 -0.0592469 0.06043139
0.066977054 0.0784266 -0.0178808 -0.07897679 -0.05066445 0.062025577 0.0527891 -0.013921755

pooling2.gnn.lin_root.weight f4 [1, 128]
00000000: bf1b 2c3d 8884 09bd 6848 973c 2099 13bb
00000010: 8a50 263b c649 23bd 3895 84bd 0698 bbbd
00000020: ba3e 36bd 9e94 873d b0f0 07bd 5ec1 3f3d
00000030: 3bd5 92bd f2fd e33b b2c0 95bd bb98 4bbd
00000040: eb8f 123d 833c 653d bb7b 933d cf5f 8d3d
00000050: 355f f23c 216a 223d ea68 b53c f703 6ebc
00000060: 4963 e43c e852 17bd 2203 21bd 4262 8d3d
00000070: 8d76 7d3d 93d7 ee3b 5f55 113b 7918 81bd
00000080: 4b1e 0ebd 9c4f 6dbd 59b0 8d3d cded 033d
00000090: ffe5 70bd ab3f cf3d 6ad4 39bd de73 4e3c
000000a0: 9fdf 613c 9346 373d e2db 1fbd b977 9eb9
000000b0: a4f0 98bd e894 7bbd d8b1 743d 366e 6b3d
000000c0: 8116 7a3d 104c bb3d d8c0 ac3d 0986 033d
000000d0: 6d93 0fbd e21d 66bc d346 83bd 53a2 3e3d
000000e0: 88a5 a43d 09b2 c6bc 431d 483c c032 c3bc
000000f0: 3177 383d 5382 8b3d 26f6 523d 2e40 f73b
00000100: 9943 543c 651f fe3c 5e59 02bd 8103 a7bc
00000110: bd7a 4c36 c8cc 0ebd bb3c 3a3c bc90 e93c
00000120: 2171 9abd 8031 b4bd 3fe9 c9bc 735b ab3c
00000130: 4195 22bb ae89 383d 3f5f 553d fd92 963d
00000140: a6e1 b2bd 4609 82bd 917a 9cbd 6df9 5f3d
00000150: 4e38 f0bc 1a7a 58bd f4cc 9dbc 9b54 97bd
00000160: f836 a83d 0737 ea3a f79c cb3d fa78 c73c
00000170: a451 4d3d 7e48 943d cc45 72bd 1116 b43d
00000180: 97e0 5bbc 8454 753d 4088 c63c 8de5 fe3c
00000190: 8790 80bd b167 9cbd 8ac8 fabc 18f4 dabc
000001a0: 55c1 9a3d a738 753d 87cf 6ebd de45 a5bd
000001b0: 5372 5abd bc84 443d 9234 47bc 9e4a 15bd
000001c0: 468b 9abd d27f 963d b722 87bd 146c 6f3d
000001d0: 903e 423d 05ac 29bd 6d83 b43c 5220 cabc
000001e0: 8838 aebd 2d08 923d 9e35 37bd a41b b23d
000001f0: e891 41bc 5840 753d 39bf 3b3d 68a6 c83d
0.04201865 -0.033573657 0.018467143 -0.002252169 0.0025377595 -0.039865278 -0.06473774 -0.091598555
-0.044493414 0.06620143 -0.03318852 0.04681527 -0.07169577 0.006957763 -0.07312144 -0.049706202
0.035781782 0.05596591 0.07201334 0.0690304 0.029586414 0.039651994 0.022144753 -0.0145273125
0.027879374 -0.0369443 -0.03930963 0.06903507 0.061880637 0.007288882 0.002217613 -0.06303496
-0.03469686 -0.05793725 0.06918401 0.032209206 -0.05881309 0.101195656 -0.04536859 0.012600867
0.013786226 0.04474504 -0.039028056 -0.0003022531 -0.074677736 -0.061421305 0.059739918 0.057478152
0.061056618 0.09145367 0.084352195 0.032110248 -0.035052706 -0.014045211 -0.06409993 0.046541523
0.08039385 -0.024254816 0.012214008 -0.02382791 0.045035545 0.06811967 0.051504277 0.0075454926
0.01295557 0.03102083 -0.03182351 -0.020387413 3.0469812e-06 -0.034863263 0.011367018 0.028511398
-0.07541109 -0.08798504 -0.024647353 0.02091763 -0.00248082 0.045053177 0.052092787 0.073522545
-0.08734445 -0.06349425 -0.07640565 0.05468123 -0.029323723 -0.05285082 -0.019262768 -0.07389184
0.082136095 0.0017869183 0.09942048 0.024349678 0.050126687 0.07240389 -0.059148595 0.08793271
-0.013420246 0.059895054 0.024234891 0.031115318 -0.062775664 -0.07636965 -0.030613203 -0.026727721
0.075564064 0.05986848 -0.058303382 -0.08069967 -0.053331684 0.047978148 -0.01215853 -0.036448114
-0.075460956 0.073485985 -0.06598418 0.05845268 0.047422945 -0.041423816 0.022035325 -0.024673615
-0.08506876 0.07130466 -0.044728868 0.08696678 -0.011814572 0.059875816 0.04583666 0.097973645

conv3.att_src f4 [1, 4, 32]
00000000: 1219 32be 1ea4 143e eab6 ae3e 163c 6ebe
00000010: 1206 0c3e 991e 753d 0f73 dbbd 1d88 4abe
00000020: 3449 b9bd 6e1c b83b a795 873e b73d b8bc
00000030: 80bc fa3b 4cb7 9b3e 799e 4c3d ab07 893e
00000040: 695f 39be 52c1 943e f6b1 68be 9ce4 cdbe
00000050: a8b4 073e cc90 093d 7f90 353e 5d30 913e
00000060: 988d c3be 23e8 2e3e f4fd 863e 8a7f 953e
00000070: 24b6 afbe 67bb ed3c 294f 29be 0586 653d
00000080: 2bfb 44be 5b53 dcbc 0925 993e 9438 b8bb
00000090: dbff c03e 7eda 323e 7302 7bbc abeb 03be
000000a0: 7a94 72be d414 bb3e 6b42 02bd cb10 803e
000000b0: fcc7 7b3e 25ea 9ebc 2778 b53e 53f2 463e
000000c0: 30c2 cd3e cc9f b0be 2a50 b13d 6d23 553d
000000d0: 7012 983c aa58 c7be 3550 303e 5cc5 7abd
000000e0: dc60 d33e e6bb 683e e85d babe 2686 90be
000000f0: af1e 133d 2aec 3cbe 8e71 47bd 13f8 253d
00000100: bb17 a0be d682 eb3d a743 32be 3335 3dbe
00000110: e707 b6be b41d 24be 78f7 a83d 8e4a 663e
00000120: 9bb0 393d bad0 513e f32a 71be 9fd4 6bbd
00000130: a2c0 a0be bd69 bd3e 4bbc a2be 6064 cebe
00000140: a5b3 aa3e 37f9 a3be 055a a73e 04da 30be
00000150: 93f0 8e3e ba3b 933d d629 48be 94a9 913e
00000160: 8329 553d 5a0c 093e 19e7 583d bf97 0dbd
00000170: a66a c13d 53d1 29be 92d7 70be 2f5e 06bd
00000180: 16e1 86be 7dcd 293e c66f 8abe 17b6 27bb
00000190: 9305 2d3c c0ba bb3e 8455 153e 1f61 9f3e
000001a0: 7923 c03e 763a b6bd 805d 523e 7f15 05be
000001b0: e2f7 793e 1469 733d 7d5f 823e 5778 b8be
000001c0: 05e2 b83e 85ca f9bd 94f9 c13d 86ad 02be
000001d0: d2e0 cb3e d01d 073e 39f6 b13e 15ad 56be
000001e0: 3b8b d5bd 9b69 d0be b3ed c03e 1d56 1f3e
000001f0: 20af 7bbe e7d6 af3d 7781 a9bd a3d2 b8be
-0.17392376 0.1451573 0.34123927 -0.23265108 0.1367419 0.059843633 -0.10715305 -0.19778486
-0.090471655 0.0056186235 0.26481363 -0.022490365 0.0076518655 0.30413282 0.04995582 0.26763663
-0.18102802 0.29053742 -0.22724137 -0.40213478 0.13252509 0.033585355 0.17730902 0.2835721
-0.38193965 0.1708074 0.26365626 0.29198867 -0.3431865 0.029020024 -0.16534103 0.056036014
-0.19236438 -0.026895216 0.29911068 -0.005621979 0.37695202 0.1746616 -0.015320408 -0.12882869
-0.23689452 0.36539328 -0.031801622 0.25012812 0.24588007 -0.019398758 0.3544323 0.19428377
0.40187216 -0.34496915 0.08657868 0.052035738 0.01856348 -0.38934833 0.17218097 -0.061223373
0.41284835 0.22727928 -0.3639977 -0.28227347 0.035917934 -0.18449464 -0.04869228 0.040519785
-0.31268105 0.11499564 -0.1740862 -0.18477325 -0.35552904 -0.16026956 0.08250326 0.22489378
0.04533444 0.20489779 -0.2355154 -0.05757582 -0.31396967 0.36994734 -0.3178428 -0.40310955
0.33340183 -0.32026073 0.32685867 -0.17270666 0.2791792 0.07189126 -0.19547209 0.2844969
0.05204154 0.13383618 0.052954767 -0.034568544 0.0944417 -0.16583757 -0.23519734 -0.032804664
-0.26343602 0.16582294 -0.270384 -0.0025590712 0.010560411 0.36665916 0.14583403 0.31128785
0.37527063 -0.08897869 0.2054348 -0.12996481 0.24410966 0.059426382 0.25463477 -0.36029312
0.3610994 -0.12196831 0.094714314 -0.12761506 0.39819962 0.13194966 0.34758165 -0.20964463
-0.10426947 -0.4070557 0.3768135 0.15560193 -0.24578524 0.08585911 -0.082766466 -0.36098203

conv3.att_dst f4 [1, 4, 32]
00000000: ed4e 773e 9c04 ecbd cd4f 893d f00e a73e
00000010: 8778 4d3e 56e6 873e 120a 833e c7ae 213e
00000020: 847d c53d 5763 0dbe acc2 e33d 4b82 663d
00000030: 154e 813e 951a b0be 7d16 0fbe 88f0 a9be
00000040: 0043 2dbe f08f 25be 5fd2 0d3e 1a6f 90bd
00000050: 00e0 dcbd ab5c 48be 4c24 c73e b75b 9dbe
00000060: a464 28bd a694 94bd f50f a2be 0c08 b83e
00000070: 1dbf 433e b449 b8be 87ca 90be 2906 8cbe
00000080: da71 bf3e 4907 dcbd 5c1a 9b3e 39e7 a8be
00000090: 0beb 9f3e a9bd 1c3e 8d1f 6f3d b94e a73e
000000a0: f47f 91be 8461 8d3d e0ea b23c d3ef 90bc
000000b0: aa5b 2f3d 6630 c0be d1d4 b6be 5ab3 c13e
000000c0: 3e6f 9abd 2358 9d3e 0966 7abd fcb4 a73e
000000d0: 7203 a13d c17b af3e e479 53be 94fe 723e
000000e0: 2819 a83e f49f a1be cca5 973c 0d6f 3e3d
000000f0: d120 543e 5d11 c83e 8637 91be 28e8 873e
00000100: df5f 26be d223 c0bd 3a9f bebe e979 3ebe
00000110: 3d44 833e a8a2 293d d3d0 493d 0913 573e
00000120: 1521 113e 6d86 3ebe 6c58 933e 1d86 eb3d
00000130: 13aa 59be 520f 75bc 6106 c03d f92b 093d
00000140: 6f16 81be 690b 86be 9960 9dbd 401f a13e
00000150: 3489 853b c517 bbbc 360f be3d d560 2fbe
00000160: cfb8 44be 105e e13d 045f 973d 6566 9dbe
00000170: 29af 4fbe 48b0 803e 1622 aebd 675d b03e
00000180: 56d7 b0be 6944 2ebd 0cc6 54be 1894 afbe
00000190: 91f3 a33e 8669 103e 2dfe c03e 1735 4fbe
000001a0: e28f 99bd 486d d13c 48e0 9bbd 103a 7e3e
000001b0: 200a b3bd 990e 893e 3671 1abe 85bb 78bd
000001c0: df23 4a3e b4af a0be dbdd 90be 0785 be3e
000001d0: 85aa 39be 0e45 b23d ba3d c43e a8f1 03be
000001e0: 36da a23c 36f6 06bc 0317 72bc 7e27 8abe
000001f0: 725a 33be 1fce 59be 51f3 c33d 4298 ccbc
0.24151202 -0.11524317 0.06704674 0.32628584 0.20065509 0.2654292 0.2559362 0.15789329
0.09643081 -0.13807426 0.11121115 0.0562766 0.25254884 -0.3439528 -0.13973422 -0.33191323
-0.1692009 -0.16168189 0.13849781 -0.07052441 -0.10784912 -0.195666 0.3889488 -0.30734035
-0.041111603 -0.07254915 -0.316528 0.3594364 0.19115873 -0.3599373 -0.28279516 -0.2734845
0.3739155 -0.10743577 0.30293548 -0.3298891 0.3123401 0.15306725 0.0583797 0.32677248
-0.28417933 0.06903365 0.021840513 -0.017692482 0.042812027 -0.37536925 -0.3570924 0.37832147
-0.07540749 0.30731305 -0.061132465 0.32755268 0.07861985 0.34274104 -0.20651966 0.23729926
0.32831693 -0.31567347 0.018511675 0.046492625 0.20715643 0.39075747 -0.28362674 0.2654431
-0.1624751 -0.09381832 -0.37230855 -0.18601193 0.25638 0.041414887 0.049271416 0.21003355
0.14172776 -0.18605967 0.28778398 0.115001895 -0.21256284 -0.014957266 0.09376217 0.0334892
-0.25212428 -0.2618058 -0.0768444 0.31469154 0.004075194 -0.022838483 0.09280245 -0.17126782
-0.19211124 0.11004269 0.0739117 -0.30742183 -0.20281662 0.25134492 -0.08502595 0.3444626
-0.34539288 -0.04254571 -0.20778674 -0.34292674 0.32021764 0.14102754 0.3769392 -0.20235096
-0.074981466 0.025564805 -0.07611138 0.24826837 -0.087421656 0.2676895 -0.15082249 -0.060725708
0.19740246 -0.3138405 -0.28294262 0.37210867 -0.18131454 0.087045774 0.38328344 -0.12885153
0.019879442 -0.008237412 -0.014775994 -0.26983255 -0.17514971 -0.21270035 0.09567893 -0.024974946
